Unity Game/Resources/Models/unity_model_compatible.onnx (onnx, 83167 bytes, 6 tensors)

mlp_extractor.policy_net.0.weight f4 [64, 100]
00000000: 9c29 c93c 8b3c 52be 7848 0dbd e1cd 3b3e
00000010: b64d fcbd 2234 60be 0355 9cbd 9ec5 12be
00000020: 3317 f83d c3be 90be 1b0b 243e fc36 99bd
00000030: db22 9a3d e8fe ccbc 0336 67be 7cf7 ae3d
00000040: baef fabd 2f38 f7bd 7c5c bc3d 5fd3 8cbc
00000050: 3e7e b4bd ff74 fabc ea0b 5d3e f453 b23d
00000060: c4c4 4dbe fec7 e73d cec6 00bd ff5f 8f3d
00000070: a2fa b43c 0ad1 8cbc 48f4 ca3d 956a 2f3e
00000080: 08ac de3d 4734 e8bc da45 103d 0ae1 7ebc
00000090: 677f 533d 9ca8 5d3e 8420 26be 35e5 cfbe
000000a0: 25e4 8a3d bdec 153d 8f5a a7bd 9ca3 80be
000000b0: 1989 283d 9ac6 0cbe 04af 83bb 28fd 5e3d
000000c0: a128 143d 5595 493e 6fb7 803e 0a3f ed3d
000000d0: af80 6bbe 4c63 c93d 2197 093d 78ea aa3d
000000e0: 818e a8bc b694 3d3d 1bcb 433d b188 0c3c
000000f0: 8851 083e 46d9 9ebc 46ff 983c adca c73d
00000100: 675d 80be 7d68 543e b4ae 82be f790 8c3e
00000110: 1542 8bbb f60a 283e 279b 5b3e b5ff 1f3d
00000120: f1e8 273d ca24 733c 7be5 93be 6735 113e
00000130: 4a9c 46bc 04c4 7e3e 8087 993d 6100 3a3e
00000140: 620b e23c 93ce 253c ed70 91be 7dea 2abc
00000150: 7845 fcbd 8c9a 643c f27b 1a3e dd20 2f3d
00000160: 8b5c 85be 099d 9cbd 216c 0fbe 1fec efbd
00000170: d0b3 bc3d a379 92be a569 6fbd f32e 213d
00000180: 24e3 cc3d d334 233d 216f 0a3e 23dd d23d
00000190: e368 483e b902 e2bd 45d0 013e 9279 5d3e
000001a0: 65bc 9f3c 6906 39be 9cf1 8abc 685b c8bd
000001b0: 438a e63d 8a29 dbbc 08bd a2be 9c69 27be
000001c0: 9ac4 913b ff59 aabd d408 dabd a8d4 053e
000001d0: 1ffc 95bd 84b5 383d 9ae3 5dbe 75e0 b83d
000001e0: c0a1 d13d 5cbe eebd ca07 0a3d b5c7 823e
000001f0: 1b35 15bd 0a60 dcbd 3268 393e c869 4e3a
00000200: 7a25 48bd 93a7 51be a667 2d3e 7934 e6bd
00000210: ef86 44ba ff6f f1bd 5e2a 183e fd14 d7bd
00000220: 703f 9abe f926 733d 979c 8c3e 9b6d 4ebd
00000230: ca09 adbd 245e febd fc3c 833e c96f a3bd
00000240: 576f 1f3d a658 e23d f05d 66be 7560 10be
00000250: 7e06 133e 9f72 7ebe 7f16 d7bd 161e 17be
00000260: 4889 9fbe 6545 313d 2239 003b f876 903d
00000270: c09c db3d 3843 34be 6324 2bbe 6a66 edbd
00000280: b7d8 c03d bb17 213e dd8b e9bd 0269 25be
00000290: 9723 c3bd baab 00be da92 04be 6794 613e
000002a0: b992 9a3d ba0f b1bd 9835 e4bd 6a62 473d
000002b0: b83d 823e 3fc5 9cbd 7640 033e 47df eebd
000002c0: 6f5f 223d 869e 213e 702b c53d 22e6 dfbd
000002d0: 5095 3bbf 22fb 22bd aafa 803c 4562 6e3e
000002e0: 3fd7 6f3e 5a3f d83d 2436 593e 993a 343d
000002f0: 9d6e 013e 16a5 15bd a4e4 343e 1950 23be
00000300: 8d8a 293e e329 393e 1e7f 553d 417a 94bd
00000310: cf23 e5bc f611 4a3e 3b93 b2bd 001e 91bd
00000320: 3e6e babc 5ea4 9abd 9ddd 3d3e acba 1bbe
00000330: 1553 0d3e 6f28 c43d a983 b2bc d26d a23d
00000340: 8f92 8c3d 9666 0bbe 6a1c 443e 8adf c53d
00000350: 7ab4 fe3d 866f fabd 724c 3d3d 7433 9ebc
00000360: d200 1b3e 2eba ac3d 4e56 05bd 68fe b3bd
00000370: 0daa 9f3e d9be a33e 3db2 97bc 1ff4 bcbd
00000380: 2991 5e3e 3688 263e c34e 383e 2445 73bd
00000390: 5cdc 2c3e 3e37 08bd 7ddb ab3d 06b1 f8bb
000003a0: c7da 5fbe a22c 0dbe 4696 59be c111 5abd
000003b0: 9e75 093e 8d3e fbbd c361 d53c 1a4c 693d
000003c0: a2e8 cd3d f4cf c7bd f1cf 23be e331 83be
000003d0: d50a 2b3e c2d1 983c 4324 73bd 1084 003e
000003e0: 31fb 733e 1ed2 a93c a02a ba3d 48cf fb3d
000003f0: 04d5 673d a747 0f3e b7cb a03e b65f be3d
0.024555974 -0.20530908 -0.03449294 0.18340255 -0.1231951 -0.21894887 -0.07633402 -0.14333197
0.121138 -0.2827054 0.16019861 -0.074811906 0.075261794 -0.025023893 -0.22579198 0.08543298
-0.122527555 -0.12071263 0.091973275 -0.017190633 -0.08813141 -0.030573366 0.21586576 0.08707419
-0.20094591 0.11317442 -0.031439595 0.07000732 0.022092167 -0.017189521 0.09909874 0.17130502
0.10872656 -0.02834524 0.035222866 -0.015556583 0.051635172 0.2164635 -0.16223341 -0.4060456
0.06781796 0.036602724 -0.081715696 -0.25124824 0.04114637 -0.13747635 -0.004018666 0.054440647
0.03617156 0.19685872 0.2513995 0.11584289 -0.22998308 0.098333925 0.033591393 0.083455026
-0.020575764 0.0462844 0.04780112 0.008577512 0.13312352 -0.019390713 0.018676411 0.09755454
-0.2507126 0.20742984 -0.25523913 0.2745435 -0.004249821 0.16410431 0.21445905 0.03906222
0.040993635 0.014840314 -0.28886017 0.14180528 -0.012122223 0.24879462 0.07496548 0.18164207
0.027593318 0.010120052 -0.28406468 -0.010431883 -0.123179376 0.0139528625 0.15086344 0.04275595
-0.26047167 -0.076471396 -0.14006092 -0.117149584 0.09213984 -0.28608426 -0.05845036 0.039351415
0.10004261 0.0398453 0.13518955 0.10296085 0.19571261 -0.110356756 0.12677105 0.21628407
0.019499013 -0.18068852 -0.016960911 -0.09783059 0.1125684 -0.026753206 -0.31784844 -0.1634888
0.0044484856 -0.08317947 -0.10646215 0.13069403 -0.07323479 0.04509498 -0.21668854 0.09027187
0.102359295 -0.11657402 0.033698834 0.2554299 -0.0364276 -0.107605055 0.18106154 0.0007874039
-0.048863865 -0.2047408 0.1693407 -0.11240477 -0.00074969133 -0.1178894 0.14859912 -0.1050205
-0.30126524 0.05936334 0.2746322 -0.050397497 -0.08449133 -0.124203 0.25632465 -0.07980306
0.03892454 0.110520646 -0.22496772 -0.14099295 0.14357945 -0.24848412 -0.10502338 -0.1475757
-0.31159425 0.04327907 0.0019565304 0.070539415 0.10723257 -0.17603767 -0.16713099 -0.115917996
0.09416335 0.15731709 -0.1140363 -0.16153339 -0.095282726 -0.12565508 -0.12946644 0.22029267
0.075475164 -0.08645578 -0.11143035 0.04867784 0.25437713 -0.07654809 0.12817559 -0.116636805
0.039641794 0.15783128 0.09627426 -0.10932566 -0.7327471 -0.03979028 0.015744526 0.23279674
0.23421954 0.10558958 0.2121206 0.044001196 0.12639852 -0.03653439 0.17665344 -0.15948524
0.16556759 0.18082385 0.05212318 -0.072498806 -0.027971176 0.19733414 -0.08719488 -0.070858
-0.022757646 -0.07550882 0.1854157 -0.15207928 0.13801225 0.095780246 -0.021791296 0.07931103
0.06863891 -0.13613352 0.19151464 0.09661777 0.12436767 -0.12228303 0.046215482 -0.019311644
0.15137032 0.084339485 -0.03255301 -0.087887585 0.31184426 0.31981543 -0.018517608 -0.0922625
0.21735062 0.16262898 0.17998795 -0.05939211 0.16880935 -0.033255808 0.083914734 -0.007589462
-0.218608 -0.13786557 -0.21248731 -0.053239588 0.13423774 -0.1226779 0.026047593 0.05695734
0.10054137 -0.09756461 -0.15997292 -0.25623998 0.16703351 0.018654708 -0.059360754 0.12550378
0.2382629 0.020730074 0.09090161 0.12295395 0.056599632 0.13992177 0.31405422 0.09295599

mlp_extractor.policy_net.0.bias f4 [64]
00000000: 2dcf 4f3c 2ddf af3b 5e04 de3c 39f4 c0bc
00000010: 98c7 a7bc ba89 2d3d 50e6 30bc b4c6 3d3c
00000020: 1919 e13c c987 55bc ddf7 1bbd b38e 1ebc
00000030: 042e 033d 01dc 27bd 2615 5cbc 1b18 873b
00000040: ab70 d9b9 cf15 99bb 42ab bc3a 23e1 1b3c
00000050: 0540 1b3d 0d4f 4dbd 8004 1f39 9e8c 8a3d
00000060: 94b2 0cbd a481 513d 88c4 433d 7cb2 4abd
00000070: f05b b53c 21b8 5e3c d159 3c3d 1e7c 293d
00000080: 3ddf 06bc 7255 5d3c 13fb 183c 4017 97bd
00000090: 26ac 7a3d cdac 143d c0d4 913c 3ad3 a7bd
000000a0: dd71 0d3c eb5b 0abc f817 28bd af3e 10bd
000000b0: 1c02 1d3d af08 793c d319 96bc 65b8 173c
000000c0: 5d4b beba ac5f ff3c bd9a 393d 0bec 3c3d
000000d0: e66a 9c39 d42b febc 44b1 ccbd 4f7d 07bd
000000e0: c878 f73c 0a4c 0e3d b002 f4bb fe35 bcbc
000000f0: 90fb 413c f727 b53c 4259 1b3c 4441 06bd
0.012683672 0.005367181 0.027101692 -0.023553954 -0.020480916 0.042367674 -0.010797098 0.011583019
0.027477788 -0.013032862 -0.038078178 -0.009677577 0.032026306 -0.040981296 -0.013432777 0.0041227466
-0.0004147341 -0.0046717892 0.00143943 0.009514126 0.03790285 -0.050124217 0.00015165098 0.06765102
-0.034349993 0.051149026 0.04779485 -0.049486622 0.022138566 0.013593704 0.045984093 0.041378133
-0.008231935 0.013509141 0.0093372045 -0.073774815 0.06119933 0.03629761 0.017801642 -0.08194585
0.008633104 -0.0084447665 -0.041038483 -0.03521603 0.03833209 0.015199824 -0.01832286 0.009260272
-0.001451831 0.03117355 0.045313586 0.046123546 0.00029834284 -0.031026758 -0.09994748 -0.033078488
0.03020896 0.034740485 -0.0074466094 -0.022974964 0.011839762 0.022113783 0.00948173 -0.032777086

mlp_extractor.policy_net.2.weight f4 [64, 64]
00000000: 383a 9f3d 47db 013e d020 9e3e 0f91 7a3e
00000010: 84c9 ef3d 4958 763e 0a58 fa3d b3d5 6bbe
00000020: 2d3c 3d3e b79f fbbe ac25 463e 57aa 953e
00000030: 2923 abbd 79c6 c33d 92a9 48be c73a f83d
00000040: 6bd0 acbd f9da 36bc 420b 03bd 3a1f bb3d
00000050: 13d6 06be 8359 e9be ddb6 52bd 6374 5e3d
00000060: fb38 61be d2a8 72bd 619a 313e 0b85 a8bd
00000070: 3ac5 713d 8002 583e 6860 28be 6332 54be
00000080: 969e a1bd 0d99 2fbf 70a7 a7be d346 1e3e
00000090: 56ea afbe a65a 3fbe 33f2 eebd 7f17 76be
000000a0: ef34 62be 7164 e0bd f3bf 9c3e 57f2 1cbd
000000b0: 445e e9be 2063 c23e 16b0 753c 2024 273e
000000c0: d792 87be 1be0 1dbe cde0 e43e 0fbc cb3d
000000d0: 22c0 553e ed6a eb3d f74c a13c 4c8f 8dbd
000000e0: dcb3 523c f1db 133d 3954 38bd b0aa 01bd
000000f0: f968 283e 134b 84bc 628b 5fbe 2e97 df3b
00000100: 4416 05be 95ef 8ebe 9a40 6a3d d666 85be
00000110: 36ad 8e3e c8c5 bebd 9258 da3d c013 393d
00000120: 397d 583d 8e68 fb3d 3703 babd 01ea 683e
00000130: c79c f83d dee7 b6be 1955 ba3e 210e 2bbe
00000140: e6d1 a6be 9357 11be c1ad 55be 4116 493e
00000150: 7afc 833d 2e07 3f3e 6030 863d 9fb0 603e
00000160: c3a5 8a3e 6b29 423e 5a53 f0bd 79d8 643d
00000170: a0f3 db3d 697a da3d cd26 d3bc da93 0d3e
00000180: bf8c 6cbe 4646 87be 8b27 2cbe 0eed 80be
00000190: 0808 a8bd 8fcb 9c3d 8bf0 803e 6510 48be
000001a0: 93e5 69be 86fb 4b3e 89bf b8be 79a8 b8be
000001b0: 6f10 c5bd 40e1 ca3b e76f d6bd 577d 91be
000001c0: 8f4b 9ebe da72 dabc 1ec3 0cbe 23a0 17bf
000001d0: c630 453e 0c4b b43e 2bf5 1abe c5e4 bb3e
000001e0: 4d6c b23d cae3 9cbe 315f 623d 6395 87bd
000001f0: 1357 89be 8615 fcbe fe06 28ba 05d3 fa3a
00000200: 48da 3bbe c0c9 c53d 48d8 9bbe 8724 7cbe
00000210: f270 71be d274 063e eca8 923d d619 333e
00000220: 150a 93bd 645c 5dbe 849e 843e 1f68 83be
00000230: 52c5 433e 1ae7 bd3d 3470 e63d 2508 223e
00000240: cb41 813d 74c5 c73e 1e83 b13e eac1 763b
00000250: 7a6d cbbc 24f3 55be dced cf3d 6cd0 ddbd
00000260: c354 c3bd d6dd a1bd 1802 103c c0ee 46be
00000270: b6f4 4b3e 7d57 84be 3507 b4bd ea64 d3bd
00000280: 1e83 08bf 1168 87be 0983 a6bd 37dd 743e
00000290: f483 abbd 2910 56be c14f e9bc c69e 8f3e
000002a0: 2202 ca3e f751 dfbc 81f2 743e bcd2 e13e
000002b0: e98c 913e c4b6 123e bb78 973d 0f2c 44be
000002c0: 6cc0 1f3e 55f3 173e 2b14 5b3e edbb 11bf
000002d0: c63f 00be 32ff c23d a55f a53e 6386 b0bd
000002e0: 5d0c 9e3d bb0c 02be d7d9 b33e 3c9c fcbe
000002f0: 54c0 4b3e a7f2 f8bd 6eba 2bbc 50bf fbbc
00000300: b9fd 98be a9f9 5d3e 2237 d33d d8d4 2ebe
00000310: e632 f0be 6f89 913e 7322 36be 21eb 583e
00000320: 9d44 503e 4beb 11bd 0a1d fcbe a11a 55be
00000330: 377f d23e 51bb 2b3e 94bb 62be 493f 5b3c
00000340: 9688 33be 2e45 0c3c 1516 14bd 8390 953c
00000350: b265 ccbd f702 35be 6d86 833e 6297 4bbe
00000360: d253 a63d 1db9 903e 0bf5 bb3e cbc0 f93a
00000370: 8712 2cbd 87ab 583e 1b14 97bd 0b16 7e3d
00000380: 05b3 92be c03a 16be 97c4 c73e f1f8 b83d
00000390: 9b7d 283e 02f9 923d de7e 10bd 3da9 8bbe
000003a0: f44b dfbc 60a3 3d3e e01c 8c3d 0479 04be
000003b0: 4c5b ffbd 54f0 42bc aaa9 78be e814 7ebe
000003c0: f2ca 023e f4b4 09bd 20b2 073d bdf8 2d3e
000003d0: 9e42 3c3d a995 bd3e 22ce cdbe 4e42 3f3e
000003e0: d7ae 9f3e 0773 8fbc da23 ed3c f9e6 91be
000003f0: 672c b03d ac53 ac3e 46ce 52be 75fd 3cbd
0.07774776 0.12681304 0.3088441 0.24469398 0.11708358 0.24057116 0.12223823 -0.23030739
0.18479986 -0.4914529 0.19350308 0.2923152 -0.08356316 0.0955934 -0.19595936 0.12120586
-0.0843819 -0.011160606 -0.03199316 0.09136815 -0.131676 -0.45576105 -0.051443923 0.054310214
-0.21994393 -0.05924303 0.17344047 -0.08228501 0.05902598 0.21094704 -0.16443026 -0.20722346
-0.07891576 -0.6859291 -0.32744932 0.15456705 -0.34358472 -0.18686923 -0.116672896 -0.240324
-0.22090505 -0.10956658 0.30615196 -0.03831705 -0.4557973 0.3796625 0.014995595 0.16322374
-0.26479217 -0.1541752 0.4470276 0.09947979 0.20874074 0.11495004 0.01969002 -0.06912097
0.012860265 0.036098424 -0.045002196 -0.03165692 0.16446294 -0.01614908 -0.21830514 0.006823442
-0.12996775 -0.27917162 0.057190515 -0.2605502 0.27866524 -0.093150675 0.10661425 0.04518485
0.052853797 0.122758016 -0.090826444 0.22745515 0.12139278 -0.35723776 0.3639305 -0.16704609
-0.32582015 -0.14193563 -0.20867063 0.19637395 0.064446405 0.18655083 0.065521955 0.21942376
0.2707959 0.18961112 -0.11734648 0.055870507 0.10739827 0.10667879 -0.025775338 0.13825932
-0.23100565 -0.26420802 -0.1681196 -0.25180858 -0.08204657 0.07656013 0.2518352 -0.19537504
-0.22841482 0.19920167 -0.3608363 -0.36066034 -0.09622275 0.0061914027 -0.104705624 -0.2841594
-0.30917022 -0.026666094 -0.13746306 -0.59228724 0.19256887 0.35213506 -0.15132587 0.36697975
0.08712063 -0.3064254 0.055266563 -0.0662029 -0.26824245 -0.4923517 -0.00064097333 0.0019136375
-0.18344986 0.096576214 -0.30438447 -0.24623309 -0.23578241 0.13130501 0.071611255 0.17490324
-0.07179657 -0.21617275 0.25902188 -0.25665376 0.1911824 0.09272595 0.1125187 0.1582342
0.06311377 0.39017832 0.34670347 0.0037652203 -0.024832476 -0.20893532 0.1015279 -0.10830769
-0.095376514 -0.0790364 0.008789562 -0.19427013 0.19917569 -0.25847998 -0.08790437 -0.10321982
-0.5332507 -0.26446584 -0.08130462 0.23912512 -0.083747774 -0.20904602 -0.028480412 0.28050822
0.39454752 -0.027260764 0.23920633 0.4410609 0.28427818 0.14327532 0.073960744 -0.19157432
0.15600747 0.14838918 0.21394412 -0.56927377 -0.12524328 0.09521331 0.32299533 -0.08619382
0.07717202 -0.12700169 0.35127136 -0.49337947 0.19897586 -0.12155657 -0.01048146 -0.030730873
-0.29881075 0.21677269 0.1031325 -0.17073381 -0.46913832 0.28425166 -0.17786579 0.21183445
0.20338674 -0.035624783 -0.49240905 -0.2081094 0.41112682 0.16770674 -0.22141868 0.013381788
-0.17532572 0.008561416 -0.03615387 0.018257385 -0.09980334 -0.17676912 0.25688496 -0.19881967
0.08121456 0.2826623 0.3671039 0.0019054649 -0.042009857 0.21159182 -0.07376882 0.06203274
-0.28652206 -0.14670849 0.39017174 0.09031857 0.16454165 0.07176401 -0.03527724 -0.27277556
-0.027257897 0.18519354 0.06841445 -0.12936789 -0.12468585 -0.011898119 -0.24283472 -0.24812663
0.1277273 -0.033619836 0.033128858 0.16989417 0.04596197 0.37028244 -0.4019633 0.18677637
0.3118808 -0.017510904 0.02894776 -0.2849653 0.08602219 0.33657587 -0.205865 -0.046140153

mlp_extractor.policy_net.2.bias f4 [64]
00000000: 1be6 d43c 58f9 db3c 1136 75bd 3524 1cbe
00000010: 1495 47bd 2594 87bd a3f5 303c 6f25 4e3e
00000020: dadd 683c 6e4f c33c 065b 2e3d 1c7d 333d
00000030: dd49 7a3c d32f 833c 6cf9 743c b5d2 66bc
00000040: 6e08 293e 7789 923d acd3 77bb be58 2f3d
00000050: 4d93 f73b 8cee 823d 6246 abbd 7369 b33d
00000060: d27d dabc 9571 16bc c6e2 9e3c 9a59 0ebe
00000070: 8916 acbb 0662 353b 7cf6 35be 406e 263e
00000080: b1f1 823b 68ed 5b3d c88e c83c d790 98bc
00000090: 1179 713d 6914 133d c500 ac3d b022 8abd
000000a0: e998 113d 9583 463d c9f5 01bc be45 7dbd
000000b0: 826d f93c 79a6 4f3d ce93 65bd bcf1 163c
000000c0: b236 17bd d6ec 85bd 3e45 ac3b edba f5bb
000000d0: 8138 823c 83ea a23d 850d 193e 87dd c03b
000000e0: b72f 183e d4f3 5cbe 2c1b 003d a222 843c
000000f0: c873 473d 7783 45bc 1555 0b3c a43c aebc
0.02598863 0.026852295 -0.059866015 -0.15248187 -0.048726156 -0.06620053 0.010800752 0.20131467
0.01421305 0.023841586 0.042567275 0.043820485 0.015276399 0.016014015 0.014952045 -0.014088322
0.16507122 0.071551256 -0.0037815375 0.04280924 0.0075554014 0.063931555 -0.08363034 0.08760347
-0.026671324 -0.0091823535 0.019395243 -0.13901368 -0.00525171 0.0027676835 -0.17769808 0.16252995
0.003996097 0.053693205 0.024482146 -0.018623753 0.05895335 0.035908137 0.08398584 -0.06744897
0.035546217 0.04846533 -0.007932135 -0.06183409 0.030447725 0.05069587 -0.05604916 0.009212907
-0.036917396 -0.065393135 0.0052572777 -0.00749909 0.015896084 0.07954886 0.14946564 0.005885783
0.14861952 -0.21577388 0.031275913 0.016129795 0.048694402 -0.012055269 0.008504172 -0.02126915

action_net.weight f4 [80, 64]
00000000: 7c92 9e3d 05f4 be3e 356a 4dbe 056b efbd
00000010: fd6f 75bd c220 583e 13ed 54be 699f d73d
00000020: 9f44 2b3e 9893 523e 3da6 233d fd50 be3d
00000030: 6797 50be 8b9d c8bd b7d2 42bd 65b3 613e
00000040: cff4 f73d 6bd5 6f3d adf0 50be b6fd 533e
00000050: 0d4d 3a3e ae3b 733d 7b7d 1cbe 19cd fc3d
00000060: 38fe b83d 65a2 683d 9406 3bbe b3c0 0fbe
00000070: bdfa 7d3d 01c0 dfbd 2b56 eabd d579 f23d
00000080: 633c 1ebe 482b 873d 9f61 1f3e c334 4cbb
00000090: d7d7 1f3e 4c6b 873e 22c2 583e 48d3 e43e
000000a0: 4d7a 2d3c 75a4 1f3e a22c 523e 4242 d73e
000000b0: d90a ee3d c885 81be 0338 003f 6dad 2a3e
000000c0: e7df 0d3e f6e3 833c b14d 4abe 2d2d f3be
000000d0: 9ecb 343e 0a8f f5bd eaae a73d 86b5 cb3e
000000e0: 5749 fc3d 2cfd f6bd c0ac 76be 86db 463e
000000f0: 08bc 4b3e a0d7 9ebc ddaf 5fbe 24a2 d0bc
00000100: 49fc f5bd c334 b0bd 4a86 ae3e e66b 65bd
00000110: 7ba3 3b3e a207 643e f43c ef3c ffe9 393d
00000120: bacd 43bc 84b3 e7bc c6a6 b1bd 5d2c 713d
00000130: 6a9a c33e 70eb 153e b730 20be bc34 92be
00000140: a3c5 4c3d bfac 673d dfcb 593e bf26 533c
00000150: 8995 63bc 11bc 5b3e 9e4a 183e 66c6 583d
00000160: 9a24 c8bc 7a21 dd3c 4630 8e3d 2ab8 86bd
00000170: 6427 413e 0041 833d 00ad 54bd 7ac5 7b3d
00000180: 27ca 63bd ab91 a83d f704 743d 5926 eabd
00000190: a94e 793e 9b44 a1bd 5d7b b03d 01dc d73c
000001a0: 226b 943d 925f 773d 076c 9bbd 8a08 0ebe
000001b0: 68e9 a63d c2c5 103e 6921 91bd 7f48 eb3d
000001c0: b32a 8cbd 7b80 30be af7c ad3d 2386 b33c
000001d0: 0bf1 aebd 8adb 223e a806 8b3d 8ebe d8bd
000001e0: 7227 8f3d 8a42 3dbd c0de 3b3e d2f1 d63d
000001f0: 1055 2abe 45dd ab3d 131a ae3d 4b9d 6abe
00000200: 1b8d 6ebd 901c 563e 5990 e23d 00d9 13be
00000210: fb9d 97be b483 d13d 99c3 79be 2d9b f93d
00000220: d93f 27be 771d 893e 7ccc e7bd 0845 263e
00000230: 04d5 ab3e 93a3 453e 6d35 c83d e929 133e
00000240: 95cb 033e 6632 f73d 2cc6 3c3e 03e4 94be
00000250: 8fd1 85be 7cda ab3d 4501 aabe ee90 003e
00000260: 6eb7 0abe 5e1e 9cbe 20f2 2cbe b2b6 ecbd
00000270: 8387 a43c 1dd6 47be 17e6 dfbd 7d93 003e
00000280: 4f15 48bc 2bc2 7d3e ce0d bfbe 4ff4 153e
00000290: 64d1 31be 4972 b2bd 0b1f 173e 1b3c 4ebd
000002a0: 6878 0c3e 6e22 dd3d cf70 b3bd 2f13 44be
000002b0: ee42 b6be 1511 9a3d 8cab febd d90e 97be
000002c0: aeff 9fbd a0f3 9bbd 8f60 323e 01e5 7e3e
000002d0: e30c afbd 5f92 013e a467 0c3e c73b 62be
000002e0: 5f83 e23d 6047 0bbe a221 483e a8e7 893e
000002f0: 0737 7dbe ed51 093e e8f1 723d b788 ecbd
00000300: b166 5b3d 2576 623c 924b cf3c 20ee 3d3d
00000310: b7a2 d13c b92c efbc c75d cdb9 d0b8 4cbd
00000320: 3d28 7fbd 056b 4dbb f107 993b e2fa 70bd
00000330: c036 28bb f11c 27bc 8216 673d 4fc5 05bd
00000340: 76b1 6ebd 5ca0 60bd 1bc6 503c f996 e3bc
00000350: ec45 e739 2b4f 88bd 1afe 8f3d 9b08 2bbd
00000360: 028a 3b3d af27 5d3c 85d5 013d 5c50 7e3d
00000370: 2f2c 56bd 87dc 4d3d f154 223d cd25 84bd
00000380: 9e17 b33d 855e 9b3c 5203 18bc 19eb 0f3d
00000390: ed3e 07bd 9c41 4ebb 134b 4abd 793f 443c
000003a0: 7ea3 0bbd 9cb7 63bd e9a7 c9bc 9938 623d
000003b0: dbb5 a739 5a97 ac3c 7430 4a3c 6ce3 fbbc
000003c0: 9125 633d 8372 6a3d 029f 683d 1ab4 023d
000003d0: 9ac0 d9bc 33b9 40bc 40b4 72bd 8886 293d
000003e0: 1ccb 70bd b6e3 843d f384 b73c 8bfe 6bbd
000003f0: defc 4cbd 7af6 08bd ded8 17bd 4216 6f3d
0.077427834 0.37295547 -0.20060046 -0.11690334 -0.059921253 0.21106246 -0.20793562 0.10528452
0.16725396 0.20564115 0.03995346 0.09292791 -0.20370255 -0.09795674 -0.047564235 0.2204109
0.121072404 0.05855314 -0.2040431 0.20702252 0.18193455 0.059383087 -0.15282242 0.12343807
0.090328634 0.056795496 -0.18264228 -0.14038353 0.0620067 -0.10925294 -0.114422165 0.11839644
-0.15452723 0.06600052 0.15564583 -0.0031159378 0.1560968 0.2644905 0.21167806 0.44692445
0.010588241 0.15590079 0.20524839 0.42042738 0.11623163 -0.2529738 0.5008547 0.16667719
0.13854943 0.016099911 -0.197562 -0.47495404 0.17655799 -0.11990173 0.08187659 0.3978693
0.12318676 -0.120600075 -0.24089336 0.19419679 0.19895947 -0.019389927 -0.2184443 -0.02546794
-0.1201101 -0.086038135 0.3408683 -0.056011103 0.18324082 0.22268537 0.02920387 0.04538917
-0.0119509045 -0.028283842 -0.08674388 0.0588802 0.38203746 0.14640594 -0.15643583 -0.28555858
0.04999317 0.056561228 0.21269177 0.012887656 -0.013890632 0.2145846 0.14872214 0.052923582
-0.024431515 0.026993502 0.06942801 -0.06578095 0.18862683 0.06408882 -0.0519228 0.061467625
-0.05561271 0.08230909 0.059575047 -0.114330955 0.24346413 -0.078744136 0.0861728 0.026350023
0.072469965 0.060393877 -0.07588964 -0.13870445 0.081499875 0.14137939 -0.070864506 0.11488437
-0.06844082 -0.17236511 0.08471047 0.021914547 -0.08542069 0.1590406 0.06788379 -0.105832204
0.069899455 -0.046206035 0.18346691 0.10495342 -0.16634011 0.08391813 0.08501067 -0.22911565
-0.058240037 0.20909333 0.110626884 -0.14438248 -0.29612717 0.102301985 -0.24391021 0.121878006
-0.1633295 0.26780292 -0.11318299 0.16237271 0.33560956 0.1930068 0.09775815 0.14371456
0.12870629 0.120701596 0.18434972 -0.2908021 -0.26136443 0.08391282 -0.33204094 0.12555286
-0.13546535 -0.30491918 -0.16889238 -0.11558284 0.020084148 -0.19515271 -0.10932558 0.12556262
-0.012212112 0.247811 -0.3731522 0.14643978 -0.17365032 -0.087132044 0.14757936 -0.05035029
0.13717806 0.107975826 -0.08761751 -0.19147943 -0.35597938 0.075227894 -0.12435064 -0.29503515
-0.07812439 -0.07614827 0.17419647 0.24892046 -0.0854738 0.12653492 0.13711411 -0.22093116
0.11060213 -0.13601446 0.1954408 0.26934552 -0.24728023 0.13410158 0.05931273 -0.11549514
0.05356473 0.013822113 0.02530459 0.04636967 0.025590284 -0.02919613 -0.00039170517 -0.04998094
-0.062294234 -0.0031344306 0.004670136 -0.05883301 -0.00256674 -0.010199771 0.05641795 -0.03265887
-0.05827471 -0.05484043 0.0127425445 -0.02778195 0.0004411185 -0.06655725 0.07030888 -0.041756254
0.04578591 0.013498231 0.03169777 0.062088355 -0.05228823 0.05025914 0.039631788 -0.064525224
0.08744739 0.018965969 -0.009278135 0.035136316 -0.033018995 -0.0031472212 -0.049388003 0.011978024
-0.034091465 -0.055595025 -0.024616199 0.055229757 0.00031988215 0.021068264 0.012340654 -0.030748092
0.055455748 0.057238113 0.056792267 0.03191004 -0.026581097 -0.011762905 -0.05925393 0.041388065
-0.05878745 0.06488745 0.022402262 -0.057615798 -0.05004584 -0.033438183 -0.037072055 0.058370836

action_net.bias f4 [80]
00000000: 4a20 f03d 1883 5e3d ad53 f23d 1fcb 46bd
00000010: 0cd6 23bd ea54 a7bd ae01 e33d 7b56 e73d
00000020: 9adb 903d 04aa 493d ca65 db3d 5787 b43d
00000030: a760 cf3d 21db 55bd ceca 85bd de27 46bd
00000040: 8f2f 003e e25e ed3d 2812 553d 2737 fc3c
00000050: 4fb8 8ebd 8fef 8cbd 4bb4 08bd 7054 84bd
00000060: fbe1 e9bc 0e9f 85bd 6d17 9ebd 6188 c1bd
00000070: d850 3ebd f0aa 3dbd fd2e 5abd 78c9 0abd
00000080: 7f9f bebc 0dc0 9cbd 64b0 69bd 42ed 98bd
00000090: c847 afbd 7ce0 2ebd 611b 66bd 2e66 4bbd
000000a0: 7b40 b7bd 2198 f8bc 232f 78bd 9571 90bd
000000b0: 4175 31bd d895 a0bd feda aebd 1573 53bd
000000c0: 9013 b1bd bfe6 14bd 7a15 8fbd 0fb5 86bd
000000d0: cafb 73bd bf15 80bd 5989 adbd b26f 6ebd
000000e0: 1e2b 81bd a467 f4bb a86d 42bd 01d7 d0bc
000000f0: 9294 89bd c994 d5bd ec4a 95bd 9b01 73bd
00000100: 2150 8cbd 50ab 93bd 0e4c 70bd 265b 14bd
00000110: b5c5 bdbd ab90 99bd 11be 84bd 81f0 76bd
00000120: 2e8b 32bd fdd3 afbd 967b 6cbd 49e0 69bd
00000130: 2e8c b2bd 7770 3fbd bfa4 79bd 9a89 a6bd
0.11724909 0.05432424 0.11832366 -0.048533555 -0.039999053 -0.08170493 0.11084305 0.11295792
0.07073136 0.049234405 0.10712774 0.088148765 0.10125857 -0.05221093 -0.065328225 -0.048377864
0.12518142 0.11590363 0.05201927 0.030788017 -0.06968748 -0.0688163 -0.033375066 -0.06461418
-0.028550139 -0.06524478 -0.07719312 -0.0944984 -0.046463817 -0.046305597 -0.053267468 -0.03388354
-0.023269413 -0.07653818 -0.057052985 -0.07467128 -0.08558613 -0.042694554 -0.056178454 -0.049657993
-0.089478455 -0.030345978 -0.060591828 -0.07052914 -0.043324713 -0.078410804 -0.08537863 -0.051623423
-0.086463094 -0.03635287 -0.06986518 -0.06577503 -0.059566297 -0.06254148 -0.084734626 -0.05821199
-0.06307052 -0.007458644 -0.047467858 -0.025493147 -0.06717791 -0.10428769 -0.07289681 -0.059327703
-0.06851221 -0.0721041 -0.05866628 -0.03621974 -0.09266225 -0.07498296 -0.06481565 -0.060287956
-0.043589763 -0.085853554 -0.05773505 -0.05709866 -0.087181434 -0.046738114 -0.06094813 -0.08131714
